MINIST_Handwritten_Digit.pth (torch, 439383 bytes, 6 tensors)

fc1.weight f4 [128, 784]
-0.01175488 0.040206823 0.018453315 0.03515964 0.03793076 0.040238503 0.024896977 -0.015389079
0.010357154 0.04414838 0.0060450947 -0.012850336 0.0366172 -0.017400919 0.015634324 0.022521215
-0.021164326 -0.0038292233 0.047330957 0.03261802 0.015297722 0.027736248 -0.016395831 0.04128627
0.044247974 0.037496585 0.04734556 0.002987984 -0.016284144 -0.015832657 -0.008126317 0.045687262
0.04572742 0.043370884 0.009056272 0.015429951 -0.017697835 -0.014983309 0.020027502 0.01130533
0.011543816 0.038061716 0.043593764 0.019446146 -0.00399984 0.03553332 -0.018381774 0.029922796
0.015410547 0.041029602 0.007392705 0.022584848 -0.018072566 0.0060741818 0.00061251374 0.04752131
0.0041915867 -0.004867266 -0.017758233 0.017274264 -0.016245143 0.034154132 0.023021095 0.043748733
0.011879986 -0.007911211 0.027964514 0.049230177 0.05088248 0.002769376 0.026305828 0.019859193
0.00269851 -0.037860364 -0.013983302 0.018801412 -0.022548746 0.030621642 0.0035046497 0.0071862647
0.000916647 0.025553228 0.0108390665 0.0155847855 -0.006120016 -0.01554011 -0.023058234 0.020897994
0.005520913 0.0037991349 0.035423663 0.039251305 -0.003373879 0.007178726 0.023889655 0.102314726
0.07708137 0.120203935 0.011479733 -0.018137466 -0.039472323 -0.06962341 -0.08012723 -0.04447498
0.009824551 -0.0012882377 0.011041074 0.032155465 -0.012784557 -0.015635818 -0.0019831934 0.031686757
0.03333602 -0.005906266 0.044629935 -0.019343093 0.050979476 0.048331097 0.059234396 0.08733781
0.17441376 0.15451092 0.19365615 0.14749084 0.16522275 0.05392179 -0.05266321 -0.14022213
-0.3113277 -0.33265993 -0.252137 -0.13942814 -0.11640625 -0.04362552 -0.04308137 -0.036718458
-0.016935114 -0.014587514 -0.0033410504 -0.004661831 0.020456666 -0.015562424 0.017352927 -0.017396951
0.0002290766 0.02341672 0.08004909 0.14977881 0.11886121 0.15430264 0.18666196 0.1393491
0.00892394 -0.17209734 -0.3333538 -0.4988826 -0.63011336 -0.65925515 -0.5136861 -0.28962374
-0.2405253 -0.2034501 -0.10472604 -0.06083151 0.0054677287 -0.010956836 0.03758951 -0.00016049098
-0.022336928 0.03241156 0.03581889 0.036799558 0.068236165 0.12340963 0.16305113 0.22383933
0.2482424 0.2455061 0.25597122 0.3018935 0.19612344 0.07093864 0.06714435 -0.14684612
-0.25497225 -0.39079526 -0.47712842 -0.5134625 -0.39780957 -0.3368158 -0.311323 -0.17593104
-0.123807564 -0.05577703 -0.03020059 -0.018918986 -0.016639182 -0.022697784 0.024293127 0.040226143
0.0785081 0.19894297 0.20868506 0.23000237 0.21825199 0.23150355 0.3266701 0.4791784
0.49190786 0.5418248 0.60285693 0.32383868 -0.07353442 -0.33311915 -0.46280164 -0.45020595
-0.3845528 -0.34008375 -0.32596067 -0.2744668 -0.16570365 -0.03799047 0.028677844 -0.012366249
0.0057273894 -0.01411061 0.042395018 0.05972741 0.18251598 0.20399252 0.23867443 0.31533048
0.2960281 0.17743446 0.30894253 0.44627306 0.6422175 0.714591 0.7745179 0.48956847
0.1460444 -0.086608976 -0.35479438 -0.40144745 -0.38736388 -0.33863187 -0.2616642 -0.2882536
-0.18483128 -0.09929387 -0.028716218 -0.020796845 -0.021862933 -0.017739473 0.04113699 0.07375353
00000000: 8a97 40bc e9af 243d 682b 973c 8e03 103d
00000010: 495d 1b3d 21d1 243d bff4 cb3c 7a22 7cbc
00000020: 0db1 293c efd4 343d ee15 c63b 378a 52bc
00000030: ebfb 153d 5f8c 8ebc 8e13 803c 697e b83c
00000040: cf60 adbc b5f3 7abb 1bde 413d 799a 053d
00000050: 4ca3 7a3c 2137 e33c 8d50 86bc cb1b 293d
00000060: 5d3d 353d 0596 193d 6bed 413d 0ed2 433b
00000070: 5366 85bc 7db3 81bc 3e24 05bc 9122 3b3d
00000080: ad4c 3b3d aba5 313d c260 143c e8cd 7c3c
00000090: 0dfb 90bc 8e7c 75bc b710 a43c fe39 393c
000000a0: 4622 3d3c 9ae6 1b3d 608f 323d 864d 9f3c
000000b0: 1711 83bb 638b 113d 6095 96bc a720 f53c
000000c0: 857c 7c3c a80e 283d 813e f23b dc03 b93c
000000d0: eb0c 94bc ee09 c73b 1a91 203a b5a5 423d
000000e0: 9459 893b 967d 9fbb b779 91bc c282 8d3c
000000f0: 8914 85bc 34e5 0b3d bc96 bc3c df31 333d
00000100: 46a4 423c 069e 01bc d615 e53c 95a5 493d
00000110: 266a 503d 6b7e 353b 527f d73c bfaf a23c
00000120: 7cd9 303b 7813 1bbd 381a 65bc 6b05 9a3c
00000130: 26b8 b8bc 3dda fa3c 44ae 653b c27a eb3b
00000140: 244b 703a 0155 d13c 5796 313c 5457 7f3c
00000150: 6a8a c8bb f29b 7ebc 9fe4 bcbc 4532 ab3c
00000160: c6e8 b43b e8fa 783b 6718 113d fac5 203d
00000170: 4c1c 5dbb 853b eb3b 3db4 c33c 628a d13d
00000180: d6dc 9d3d 7b2d f63d 7d15 3c3c 0695 94bc
00000190: bbad 21bd b896 8ebd bf19 a4bd 662b 36bd
000001a0: 27f7 203c 16da a8ba 9fe5 343c 73b5 033d
000001b0: 5276 51bc b016 80bc 77f8 01bb f9c9 013d
000001c0: 5a8b 083d 5a89 c1bb e1cd 363d 6875 9ebc
000001d0: dbcf 503d d4f6 453d c49f 723d 2ade b23d
000001e0: 8599 323e 1c38 1e3e cc4d 463e d707 173e
000001f0: 2730 293e 18dd 5c3d 61b5 57bd 6496 0fbe
00000200: 5866 9fbe 6752 aabe 1a18 81be 40c6 0ebe
00000210: 6666 eebd acb0 32bd 1776 30bd 1866 16bd
00000220: 82bb 8abc 7800 6fbc 86f5 5abb 46c2 98bb
00000230: bd94 a73c 8af9 7ebc ba27 8e3c 0d84 8ebc
00000240: 4834 7039 6cd4 bf3c c7f0 a33d 9e5f 193e
00000250: 826d f33d 8301 1e3e 5024 3f3e 88b1 0e3e
00000260: b835 123c 493a 30be 59ad aabe 8a6d ffbe
00000270: 1c4f 21bf f2c4 28bf ef80 03bf 9049 94be
00000280: 444c 76be 3955 50be 9b7a d6bd 762a 79bd
00000290: a22a b33b 4d84 33bc 75f7 193d 7849 28b9
000002a0: effb b6bc fcc1 043d d4b6 123d 22bb 163d
000002b0: 67bf 8b3d 30be fc3d e0f6 263e 2336 653e
000002c0: 4133 7e3e f365 7b3e a90e 833e c991 9a3e
000002d0: 95d4 483e 4748 913d fa82 893d d45e 16be
000002e0: b98b 82be 5116 c8be 2d4a f4be 4772 03bf
000002f0: b2ad cbbe 1f73 acbe ba65 9fbe 4427 34be
00000300: d28e fdbd 7476 64bd 3a67 f7bc fdfb 9abc
00000310: e54e 88bc b4f0 b9bc 6102 c73c 2bc4 243d
00000320: dbc8 a03d b5b7 4b3e 89b1 553e be85 6b3e
00000330: 737d 5f3e 440f 6d3e 4e41 a73e df56 f53e
00000340: 59db fb3e 08b5 0a3f d554 1a3f 2fce a53e
00000350: 3799 96bd 988e aabe 56f4 ecbe 6581 e6be
00000360: 1be4 c4be 751f aebe 51e4 a6be ea86 8cbe
00000370: 38ae 29be e59b 1bbd cced ea3c cf9b 4abc
00000380: d3ac bb3b 3030 67bc 66a6 2d3d bba4 743d
00000390: 78e5 3a3e 6ae3 503e 1267 743e ff72 a13e
000003a0: ff90 973e 61b1 353e b72d 9e3e e77d e43e
000003b0: 5e68 243f 70ef 363f ce46 463f b8a8 fa3e
000003c0: aa8c 153e 0c60 b1bd 9ca7 b5be 858a cdbe
000003d0: 8f54 c6be 2861 adbe daf8 85be fa95 93be
000003e0: 6944 3dbe 965a cbbd 463e ebbc 255e aabc
000003f0: e519 b3bc 5f52 91bc 437f 283d 170c 973d

fc1.bias f4 [128]
-0.002248786 0.004197556 0.008465997 0.058763634 -0.05143548 0.03860967 0.016034078 -0.003039306
0.018231805 0.021558972 -0.039582483 -0.013756419 -0.05259903 -0.014188596 0.042547446 -0.03129175
0.03718632 -0.016274948 0.017296197 0.012456551 0.013715119 0.0032527465 0.022858042 0.011349302
-0.027480401 -0.03133067 -0.05039449 -0.043174364 -0.06351767 -0.027375855 0.011092313 0.0077649336
0.0043244916 0.005293467 0.04538217 -0.026750915 0.039726045 -0.0048610508 -0.049678855 -0.048709713
-0.0050129457 0.0076845023 -0.04845518 -0.01132051 -0.011110537 -0.040316414 -0.0104428595 -0.025365822
0.03452863 0.010304518 -0.0019612669 0.01206312 -0.034713026 -0.061617147 -0.031853724 0.028449856
0.002951897 0.00020261007 0.014141174 0.0025986992 0.038222853 -0.04897594 -0.009183612 -0.012292761
-0.040085997 -0.014056306 -0.037084457 -0.031956974 -0.017665682 -0.02577524 0.012088021 0.0068827993
-0.015385697 -0.053118818 -0.0015455055 0.041237157 -0.036289006 -0.04605154 -0.016395023 -0.043865073
0.006892488 0.0059049963 -0.021494947 -0.009838958 0.019072814 -0.046862274 0.017675329 -0.0015869918
0.030643342 -0.02227182 -0.0046929955 -0.028919399 0.006525159 0.008286261 0.013424563 0.012233038
-0.034461867 -0.037472162 0.033784155 -0.008645938 -0.0005080963 -0.006159717 -0.04630239 -0.009589236
-0.009797698 0.027511952 0.0022862875 -0.037801296 -0.026095435 0.0008502937 -0.030880949 -0.02867533
-0.035992548 -0.026535721 0.010726373 -0.04745123 0.0057418183 -0.0006971887 -0.03623246 -0.021944758
-0.05263749 -0.029747022 -0.03557691 0.02171151 -0.03224534 -0.04577041 -0.02673759 -0.014610582
00000000: 5e60 13bb a78b 893b f7b4 0a3c 23b2 703d
00000010: 03ae 52bd 2c25 1e3d e659 833c 182f 47bb
00000020: de5a 953c 719c b03c 3e21 22bd 9a62 61bc
00000030: 1572 57bd 4977 68bc 3b46 2e3d c72b 00bd
00000040: af50 183d 0a53 85bc c1b0 8d3c 9016 4c3c
00000050: 61b5 603c 082c 553b ca40 bb3c 6cf2 393c
00000060: 941e e1bc 9754 00bd 746a 4ebd 9ad7 30bd
00000070: 8d15 82bd 5443 e0bc 88bc 353c fc70 fe3b
00000080: 77b4 8d3b d274 ad3b a7e2 393d bc24 dbbc
00000090: c7b7 223d 7349 9fbb 0e7c 4bbd d683 47bd
000000a0: a343 a4bb 47ce fb3b f078 46bd a979 39bc
000000b0: f808 36bc d322 25bd 8718 2bbc fccb cfbc
000000c0: e56d 0d3d 48d4 283c 9988 00bb 64a4 453c
000000d0: 3f2f 0ebd 4362 7cbd 0d79 02bd ac0f e93c
000000e0: 9d74 413b ba73 5439 62b0 673c f04e 2a3b
000000f0: 918f 1c3d ff9a 48bd dc76 16bc 9467 49bc
00000100: 3731 24bd 6c4c 66bc dfe5 17bd 51e5 02bd
00000110: 9fb7 90bc 9926 d3bc d60c 463c 1b89 e13b
00000120: 4a14 7cbc 1e93 59bd 8f92 caba 4be8 283d
00000130: c8a3 14bd 8aa0 3cbd db4e 86bc ddab 33bd
00000140: 61da e13b b37e c13b 2c16 b0bc 9533 21bc
00000150: 973e 9c3c a8f2 3fbd dacb 903c 9c02 d0ba
00000160: bf07 fb3c 6473 b6bc b3c7 99bb 60e8 ecbc
00000170: 00d1 d53b 19c3 073c b3f2 5b3c 156d 483c
00000180: e327 0dbd 697c 19bd 4161 0a3d b1a7 0dbc
00000190: c431 05ba 74d7 c9bb 93a7 3dbd 2c1c 1dbc
000001a0: 8686 20bc bf60 e13c 8ad5 153b 88d5 1abd
000001b0: 18c6 d5bc 3fe6 5e3a 0bfa fcbc 87e8 eabc
000001c0: ec6c 13bd 7161 d9bc abbd 2f3c 395c 42bd
000001d0: dd25 bc3b 8bc3 36ba 7d68 14bd 7ec5 b3bc
000001e0: 699a 57bd 07b0 f3bc 18b9 11bd 56dc b13c
000001f0: b113 04bd c179 3bbd ca08 dbbc 3961 6fbc

fc2.weight f4 [64, 128]
0.00032452587 0.20419593 -0.24056609 0.0672502 0.018645776 -0.004669868 0.026277138 -0.024169067
0.16208157 0.05145634 -0.082251 0.13652807 0.086778864 0.10828388 -0.19862743 0.0018030106
-0.35117066 0.05200726 0.025181731 -0.012563069 0.071539186 0.07637769 -0.06806498 -0.007918508
0.094323836 -0.04810638 0.014494259 -0.01853904 0.13902983 0.34479105 0.06512305 0.055237755
0.024260357 -0.038211353 0.090258464 -0.050300516 0.17844778 -0.045270383 -0.24558173 -0.06145653
-0.0021540937 -0.082158335 0.048868608 -0.041428488 0.01439376 0.107443415 0.018824194 0.049407266
-0.16527787 -0.030245682 0.04132195 -0.07038461 0.014072622 -0.022210859 -0.01866548 -0.5007283
0.2747918 -0.07387296 0.35905308 -0.4173302 -0.22351211 -0.07801282 0.08190019 -0.26212177
0.033777233 -0.13921098 0.0026444092 0.0080348365 0.038214177 0.010639827 -0.25606835 -0.05509945
0.046903517 0.029707786 0.083320744 0.25286806 -0.040961668 -0.009285203 -0.025865246 0.0014179675
-0.013532341 -0.07819336 0.124763295 -0.06299688 0.07938135 -0.045409814 0.057620157 0.23396046
-0.04885634 -0.12439057 0.12111534 -0.031534914 0.035937257 0.00020615925 -0.028526725 -0.06797063
-0.14967506 0.07439245 -0.011575688 0.09958236 0.020780846 -0.059488915 -0.05838173 -0.026845329
-0.0018828321 -0.07057032 -0.021715552 -0.012243473 -0.07288806 -0.041764446 -0.053602573 -0.056064676
0.0669562 0.06399334 -0.074437246 -0.004285207 -0.04692356 -0.07952849 -0.065507844 -0.017658949
-0.02270361 0.0009850562 -0.06272651 0.12516515 -0.016434008 0.04159337 0.02801424 -0.0025981003
-0.043092616 -0.21264327 0.079391606 0.04454939 -0.1033605 0.10413203 0.002498539 0.02620119
0.14875449 0.054998778 0.010087647 -0.14019103 -0.07256144 -0.07887519 -0.10795779 0.054449312
-0.048213236 -0.02474203 -0.17101468 -0.021790521 0.09102712 0.16308668 0.0722964 0.05193286
-0.32943302 0.016265975 0.011970143 0.050521858 0.13127567 -0.13201673 0.05673922 0.15049417
-0.012307959 -0.080901414 0.059829406 0.24377505 0.08671035 -0.039886348 -0.0029410403 -0.0036637797
0.092089176 0.06875686 0.01955314 0.04815546 -0.018454531 -0.008468676 -0.02943505 0.22494943
0.08865044 0.105194405 -0.055772156 0.09457303 -0.036373157 -0.012846953 0.06370245 0.20991379
-0.04337432 0.051683724 -0.038820326 -0.43731606 -0.021135855 0.0661544 -0.06407348 0.018499793
-0.04577961 -0.13858826 -0.012830328 -0.12391622 -0.013746638 0.2176266 -0.25804025 0.026088828
-0.07429513 0.05110059 -0.040580355 -0.013086396 0.01636338 0.05806169 0.006356973 -0.0060472717
0.011564573 -0.04460579 -0.43441096 0.0362494 -0.040085424 0.078771174 -0.059559517 0.24885607
-0.08712761 -0.052468218 -0.16787015 -0.005824602 0.0141590675 0.04711097 -0.012036937 0.037719686
0.09697547 -0.045527775 0.0081798555 -0.13496006 -0.23989908 -0.003788431 0.100884825 -0.06732696
-0.08058961 -0.038206767 -0.0044424203 0.23315307 -0.02129339 0.07790498 0.015904019 -0.08971799
-0.08105124 0.0012765491 0.14343457 0.0078583835 0.011445082 -0.013416912 -0.044016115 0.05396743
-0.057146203 0.047765344 -0.0111822 -0.074317165 0.117309265 -0.01532424 -0.038849913 0.005505129
00000000: 2025 aa39 bd18 513e f556 76be 79ba 893d
00000010: 07bf 983c b105 99bb 2743 d73c 35fe c5bc
00000020: b6f8 253e e2c3 523d 3673 a8bd 04ce 0b3e
00000030: 1eb9 b13d f0c3 dd3d fd64 4bbe ff52 ec3a
00000040: a4cc b3be 9105 553d eb49 ce3c 55d5 4dbc
00000050: 2383 923d e86b 9c3d a765 8bbd a1bc 01bc
00000060: db2c c13d 320b 45bd 5479 6d3c 2fdf 97bc
00000070: d65d 0e3e 7488 b03e 3c5f 853d fc40 623d
00000080: a8bd c63c 8283 1cbd 6ed9 b83d ea07 4ebd
00000090: 04bb 363e 706d 39bd c779 7bbe d8b9 7bbd
000000a0: b22b 0dbb a142 a8bd 732a 483d ebb0 29bd
000000b0: ced3 6b3c 4b0b dc3d 3235 9a3c 465f 4a3d
000000c0: 9a3e 29be cbc5 f7bc 3441 293d ce25 90bd
000000d0: db90 663c 8cf3 b5bc 59e8 98bc bb2f 00bf
000000e0: 83b1 8c3e b54a 97bd ced5 b73e 4eac d5be
000000f0: 5ce0 64be 2fc5 9fbd 49bb a73d d334 86be
00000100: ff59 0a3d 538d 0ebe d34d 2d3b 8ca4 033c
00000110: 7886 1c3d ab52 2e3c 641b 83be f6af 61bd
00000120: e71d 403d be5d f33c 11a4 aa3d ec77 813e
00000130: 6cc7 27bd f720 18bc 5ae3 d3bc 18db b93a
00000140: c1b6 5dbc d723 a0bd e683 ff3d 8204 81bd
00000150: b092 a23d a4ff 39bd 1d03 6c3d 5593 6f3e
00000160: 961d 48bd 7cc0 febd 520b f83d c12a 01bd
00000170: f232 133d 742c 5839 e1b0 e9bc 3034 8bbd
00000180: 6b44 19be 125b 983d f4a7 3dbc d6f1 cb3d
00000190: 983c aa3c a6aa 73bd ae21 6fbd bcea dbbc
000001a0: 5dc9 f6ba 2c87 90bd d0e4 b1bc d998 48bc
000001b0: 5646 95bd 3211 2bbd 5f8e 5bbd 13a4 65bd
000001c0: 5520 893d f10e 833d 8e72 98bd ec6a 8cbb
000001d0: eb32 40bd d5df a2bd fa28 86bd 80a9 90bc
000001e0: ecfc b9bc 001d 813a c276 80bd 4b2b 003e
000001f0: 9da0 86bc cf5d 2a3d 1f7e e53c e444 2abb
00000200: e281 30bd 28bf 59be 1198 a23d 6c79 363d
00000210: abae d3bd 2c43 d53d 87be 233b e1a3 d63c
00000220: 1953 183e 6646 613d a846 253c 3d8e 0fbe
00000230: 189b 94bd 5189 a1bd f918 ddbd 3e06 5f3d
00000240: 3e7b 45bd ccaf cabc 791e 2fbe 0982 b2bc
00000250: 6d6c ba3d 3200 273e 2310 943d 8db7 543d
00000260: 72ab a8be 3940 853c 6b1e 443c 02f0 4e3d
00000270: 216d 063e 652f 07be 6267 683d 251b 1a3e
00000280: 52a7 49bc a4af a5bd ae0f 753d 2ba0 793e
00000290: 3295 b13d de5f 23bd 78be 40bb 061c 70bb
000002a0: 4099 bc3d 66d0 8c3d e82d a03c a93e 453d
000002b0: f52d 97bc 34c0 0abc c621 f1bc 2559 663e
000002c0: 5d8e b53d 2a70 d73d 5871 64bd 81af c13d
000002d0: 05fc 14bd 077c 52bc 6e76 823d a4f3 563e
000002e0: 45a9 31bd 50b2 533d 1002 1fbd e4e7 dfbe
000002f0: 1a25 adbc f57b 873d f538 83bd e18c 973c
00000300: 6683 3bbd 15ea 0dbe 4c36 52bc cac7 fdbd
00000310: 9439 61bc 82d9 5e3e da1d 84be 3db8 d53c
00000320: 0c28 98bd da4e 513d 9637 26bd 5368 56bc
00000330: 7f0c 863c 18d2 6d3d 284e d03b 3128 c6bb
00000340: 5679 3d3c 90b4 36bd 1d6b debe 407a 143d
00000350: 9d30 24bd c852 a13d aef4 73bd 20d4 7e3e
00000360: f66f b2bd eae8 56bd 27e6 2bbe 4edc bebb
00000370: 6ffb 673c 6ff7 403d 9336 45bc f57f 1a3d
00000380: 139b c63d 557b 3abd cd04 063c f832 0abe
00000390: 1ba8 75be 5347 78bb b49c ce3d b8e2 89bd
000003a0: 2a0c a5bd b37e 1cbd b991 91bb aebf 6e3e
000003b0: 7a6f aebc a58c 9f3d 2549 823c 11be b7bd
000003c0: 31fe a5bd e151 a73a 83e0 123e 73c0 003c
000003d0: 2784 3b3c 9cd2 5bbc 3e4a 34bd f40c 5d3d
000003e0: 2312 6abd 98a5 433d 8c35 37bc 9933 98bd
000003f0: d73f f03d 8512 7bbc 1621 1fbd 5f64 b43b

fc2.bias f4 [64]
0.07424757 0.09361999 -0.120228365 -0.027069686 0.17949973 0.039537806 0.12834139 0.083662406
-0.08572139 -0.09311508 0.07473284 0.06865585 -0.009323174 0.10036009 -0.13744348 0.10925971
0.2151867 -0.09017211 -0.0053563514 -0.09703775 -0.13305596 -0.060123958 0.018442446 -0.12369931
-0.00040555606 0.011919358 -0.15257354 0.13569722 0.030643614 -0.056447685 0.058563564 -0.05388547
0.16917731 -0.0644039 0.099876866 -0.1406462 -0.06085136 0.13340051 -0.10829463 0.020953791
-0.08185179 0.03935472 -0.061892327 0.011204384 -0.07107872 -0.052192293 0.033026703 0.035951506
0.07435067 -0.035842307 -0.019234158 -0.058007184 -0.15889548 0.075561315 -0.010466982 -0.08444615
-0.054658044 0.008803163 0.032442614 0.09853783 -0.105882004 -0.19896124 0.05434231 -0.13395803
00000000: 1c0f 983d d6bb bf3d 4a3a f6bd 3fc1 ddbc
00000010: c7ce 373e 65f2 213d ed6b 033e 3257 ab3d
00000020: b28e afbd 1eb3 bebd 880d 993d 709b 8c3d
00000030: 3ac0 18bc 9789 cd3d fcbd 0cbe 8ec3 df3d
00000040: e759 5c3e 28ac b8bd 5584 afbb babb c6bd
00000050: d23f 08be 8a44 76bd 9d14 973c 1056 fdbd
00000060: d0a0 d4b9 6949 433c 3d3c 1cbe 36f4 0a3e
00000070: 5108 fb3c b035 67bd 59e0 6f3d 03b7 5cbd
00000080: d13c 2d3e 31e6 83bd 3e8c cc3d 8f05 10be
00000090: 473f 79bd 259a 083e 93c9 ddbd 49a7 ab3c
000000a0: e9a1 a7bd 6a32 213d cf82 7dbd 9892 373c
000000b0: b891 91bd 96c7 55bd 0247 073d e341 133d
000000c0: 2a45 983d 62cf 12bd f490 9dbc f198 6dbd
000000d0: 7fb5 22be e4bf 9a3d b47d 2bbc 1af2 acbd
000000e0: 1de1 5fbd 243b 103c 8ce2 043d 34ce c93d
000000f0: aad8 d8bd 7fbc 4bbe 0b96 5e3d 4b2c 09be

fc3.weight f4 [10, 64]
-0.1482369 -0.13325253 -0.12596582 -0.4868367 0.13677195 0.09867016 -0.02418989 -0.10918452
-0.41238385 -0.12170783 -0.043980345 -0.16427933 -0.038697597 0.11268991 -0.24907462 -0.2600421
-0.42992496 -0.009059174 0.23326173 0.021669582 -0.12146866 -0.040974546 -0.13513581 -0.049344584
-0.05268517 0.092085004 -0.03806438 -0.2782587 -0.015551607 -0.089020826 -0.4984552 -0.11921458
0.22831513 0.3094187 -0.10922412 0.19831368 0.1654767 -0.20255867 -0.057467215 -0.012855709
0.101677105 -0.21004793 0.17905754 0.16940056 0.120287634 -0.14126576 -0.092460796 -0.21615453
-0.054083366 -0.31810635 -0.18685408 0.07536865 -0.12176748 -0.13379489 0.18279733 -0.06364916
0.2560639 -0.039234497 0.088079505 -0.12391003 0.21826144 -0.029269125 -0.13605915 -0.0038669389
-0.5909393 0.25366727 0.03317425 0.18831766 0.048960455 -0.11736649 0.0074222223 -0.29440022
0.14178741 0.25363532 -0.3042137 -0.27461308 -0.116355106 -0.25886637 -0.07786324 0.10936663
0.11703637 -0.028605476 -0.085141584 -0.05763257 0.04542368 -0.1142972 0.07152391 -0.07253679
-0.2550606 -0.017180294 0.13217187 0.18184465 -0.38167545 -0.117990814 -0.04368207 -0.16566376
-0.07373348 -0.2331249 -0.046922725 -0.3272736 -0.5043912 -0.33457074 -0.016351458 0.11909626
-0.007998037 0.040506 -0.30378583 -0.050248012 -0.469865 0.26501048 -0.049391143 0.08265318
-0.030386101 0.18049026 0.29273066 -0.12033879 0.08572397 -0.024861969 -0.3879715 0.048765857
-0.15591232 -0.035315473 0.022361089 0.10227432 -0.025593039 0.05114742 0.0468696 -0.06968786
0.15061896 -0.15605351 0.01775545 0.16919573 0.1736014 0.16413121 -0.14558691 -0.3114632
0.20048206 0.26729074 0.22867121 -0.20823978 0.071355894 -0.009229513 -0.14034025 -0.14221667
-0.13777177 0.0880457 -0.052427005 -0.008214471 -0.25124207 -0.013270756 0.08716565 -0.03055493
0.22976455 -0.072748624 0.2463143 -0.49689877 -0.356233 0.053169664 0.19240992 -0.060612712
0.06904759 0.14327288 0.049008816 0.06886043 -0.2876747 0.057222884 0.060928203 0.04043281
0.023308083 0.3247266 -0.0122421 0.2621214 -0.06377544 -0.4043965 0.07840618 -0.008339346
-0.38473102 0.09484588 0.021487866 -0.103980854 -0.029186828 0.13344316 0.17603382 -0.03845279
-0.09077235 -0.051677797 0.08131167 -0.047240015 0.17203464 -0.17614543 -0.31695622 0.07111674
-0.14038484 -0.26733726 -0.0074265883 -0.25078446 -0.33391878 -0.07910009 -0.34345448 -0.45604473
0.17373474 -0.0008070003 0.14141598 -0.014192024 0.049670745 -0.101396166 -0.20224659 0.04293848
-0.05535165 -0.00050792086 0.182166 -0.1414066 -0.17701076 0.13846533 -0.029306013 0.063056454
-0.31165656 0.08199673 0.06704922 0.16181718 0.07803843 0.019415163 0.07160514 -0.13758262
0.10017952 -0.049403057 -0.33590147 -0.15422644 0.12735282 0.2229751 0.004202942 0.095692076
0.043120652 -0.06805336 -0.21982041 0.19452636 -0.43710804 -0.12320149 -0.058823533 -0.29811937
-0.15436138 0.15104319 -0.2520955 -0.049255796 0.032287896 0.25227985 0.05330139 -0.13699311
-0.2822119 0.1139652 0.025190173 0.36110285 0.018983405 -0.082742386 0.20997758 -0.17431241
00000000: 6acb 17be 5a73 08be 2ffd 00be a942 f9be
00000010: f20d 0c3e 9513 ca3d e029 c6bc 229c dfbd
00000020: fa23 d3be f441 f9bd bc24 34bd d738 28be
00000030: 5f81 1ebd f8c9 e63d 6b0d 7fbe 3d24 85be
00000040: 201f dcbe ee6c 14bc 2adc 6e3e 6884 b13c
00000050: 90c4 f8bd edd4 27bd 0b61 0abe 8c1d 4abd
00000060: 68cc 57bd 1097 bc3d 65e9 1bbd ed77 8ebe
00000070: 2bcc 7ebc 8d50 b6bd 8535 ffbe c626 f4bd
00000080: 71cb 693e 216c 9e3e e5b0 dfbd be12 4b3e
00000090: b972 293e 8a6b 4fbe be62 6bbd c0a0 52bc
000000a0: 163c d03d ce16 57be dc5a 373e 5777 2d3e
000000b0: 5d59 f63d f9a7 10be 165c bdbd 9d57 5dbe
000000c0: 8586 5dbd d6de a2be ad56 3fbe e15a 9a3d
000000d0: 3b61 f9bd 8701 09be 392f 3b3e 7e5a 82bd
000000e0: cf1a 833e 5ab4 20bd 0763 b43d 8bc4 fdbd
000000f0: ed7f 5f3e cec5 efbc 1753 0bbe 786c 7dbb
00000100: cc47 17bf ade0 813e b9e1 073d 58d6 403e
00000110: c28a 483d d85d f0bd 1d36 f33b a0bb 96be
00000120: b830 113e 7ddc 813e e6c1 9bbe 169a 8cbe
00000130: 964b eebd 228a 84be c376 9fbd 9dfb df3d
00000140: c4b0 ef3d 0856 eabc b65e aebd 2110 6cbd
00000150: 2e0e 3a3d a714 eabd 217b 923d 2b8e 94bd
00000160: 4e97 82be b0bd 8cbc 1058 073e 7c35 3a3e
00000170: f76a c3be 2ba5 f1bd f8eb 32bd c3a3 29be
00000180: 9401 97bd 4bb8 6ebe 0b32 40bd 6890 a7be
00000190: c81f 01bf db4c abbe 7ef3 85bc bde8 f33d
000001a0: 330a 03bc 9fe9 253d d189 9bbe dcd0 4dbd
000001b0: 2592 f0be 74af 873e 5e4e 4abd 1246 a93d
000001c0: 46ec f8bc 70d2 383e cbe0 953e 2f74 f6bd
000001d0: 0c90 af3d 54ab cbbc 33a4 c6be b5be 473d
000001e0: 7ba7 1fbe f5a6 10bd 9a2e b73c 3375 d13d
000001f0: 7ea8 d1bc f57f 513d 56fa 3f3d 82b8 8ebd
00000200: db3b 1a3e 7ecc 1fbe e173 913c a541 2d3e
00000210: 91c4 313e 0312 283e bc14 15be 1b78 9fbe
00000220: 2b4b 4d3e 55da 883e c928 6a3e cf3c 55be
00000230: 0a23 923d 6237 17bc 5bb5 0fbe 3fa1 11be
00000240: 0b14 0dbe 4e51 b43d b3bd 56bd fd95 06bc
00000250: cda2 80be 966d 59bc e883 b23d 554e fabc
00000260: 6647 6b3e 3bfd 94bd d139 7c3e 8469 febe
00000270: 2c64 b6be 6fc8 593d 1b07 453e 0945 78bd
00000280: d368 8d3d 20b6 123e 78bd 483d b206 8d3d
00000290: 194a 93be 8b62 6a3d da8f 793d e09c 253d
000002a0: 98f0 be3c 9142 a63e 1793 48bc c734 863e
000002b0: b39c 82bd 0f0d cfbe 6b93 a03d c1a1 08bc
000002c0: 77fb c4be 8f3e c23d 5207 b03c eaf3 d4bd
000002d0: 3719 efbc 53a5 083e 3642 343e ac80 1dbd
000002e0: dbe6 b9bd 19ac 53bd bc86 a63d bf7e 41bd
000002f0: d929 303e 785f 34be 1648 a2be a7a5 913d
00000300: 0bc1 0fbe 6ee0 88be bd5a f3bb d266 80be
00000310: 67f7 aabe 3aff a1bd 44d9 afbe b27e e9be
00000320: 85e7 313e e08c 53ba 5acf 103e aa85 68bc
00000330: 8d73 4b3d cba8 cfbd bb19 4fbe 42e0 2f3d
00000340: 69b8 62bd fe25 05ba b989 3a3e e4cc 10be
00000350: 4f42 35be dbc9 0d3e 2a13 f0bc be23 813d
00000360: 7391 9fbe e7ed a73d 1a51 893d 67b3 253e
00000370: 9dd2 9f3d 8c0c 9f3c b7a5 923d 75e2 0cbe
00000380: ec2a cd3d dc5a 4abd 47fb abbe 89ed 1dbe
00000390: c768 023e 9653 643e d5b8 893b 35fa c33d
000003a0: 489f 303d 8f5f 8bbd 9a18 61be eb31 473e
000003b0: a0cc dfbe 1051 fcbd f2f0 70bd 1aa3 98be
000003c0: e910 1ebe 11ab 1a3e a912 81be 72c0 49bd
000003d0: 5040 043d d32a 813e 8f52 5a3d ec47 0cbe
000003e0: 147e 90be 9666 e93d 9f5b ce3c 79e2 b83e
000003f0: 1683 9b3c d774 a9bd 5d04 573e f47e 32be

fc3.bias f4 [10]
0.059247006 0.048558723 -0.076693535 -0.04085873 -0.16661842 -0.09330053 -0.06521435 -0.014552446
0.0709954 0.036693983
00000000: fdac 723d 83e5 463d 8011 9dbd 7c5b 27bd
00000010: 059e 2abe 5914 bfbd 1a8f 85bd 626d 6ebc
00000020: 0966 913d 6e4c 163d
